attempt_3_parameters.pth (torch, 229647 bytes, 12 tensors)

conv1.weight f4 [6, 1, 3, 3]
000000 da 5b fc be a5 9b 69 bf 6c 8f 2d be f8 da 4f bd
       -0.49288827 -0.9125312 -0.16949242 -0.050745934
000010 43 5a 16 3f 38 3d 50 3f eb d7 ed bc 45 8f 0d 3f
       0.5873148 0.8134341 -0.029033622 0.55296737
000020 bb 87 eb 3e 00 4c bc bc 1c 51 ac 3d 35 20 10 bf
       0.46001992 -0.022985458 0.08413908 -0.56299144
000030 82 7c 39 bf 39 52 06 3f 87 d7 93 3e a5 f4 31 bf
       -0.7245561 0.5246921 0.28875372 -0.6951392
000040 d6 4e fd 3d ce 86 74 3f ab b7 49 bf e5 56 0c 3f
       0.123685524 0.95518196 -0.7879588 0.5482009
000050 99 c6 ed 3e e9 d4 72 be d7 35 0f 3f 29 e4 00 3f
       0.4644058 -0.23714031 0.5594153 0.50348145
000060 e4 b4 03 3d 99 5d 30 bf 29 4e 6d 3e e1 07 b4 3d
       0.032154933 -0.6889282 0.23174347 0.08790565
000070 e4 78 6f be 23 03 27 be 31 32 66 3e 0d ed 3f bd
       -0.2338596 -0.1630979 0.22480084 -0.04685693
000080 8b 0f 20 3e 82 c5 7e 3e fe 3b 37 bd 28 fc bb be
       0.15630929 0.24880031 -0.044734947 -0.36715817
000090 c2 78 8b 3f 07 18 d7 bc a6 3d 45 bf 33 23 12 3f
       1.0896227 -0.026256574 -0.77047193 0.5708496
0000a0 d5 2d 6a bf 8a 98 b1 be 52 a2 4b 3f 65 e3 b7 be
       -0.91476184 -0.3468669 0.79544556 -0.35915676
0000b0 d7 ef c6 be cd a6 18 be c5 70 41 3e 54 ce de be
       -0.38854858 -0.1490738 0.18890674 -0.4351679
0000c0 98 c7 1a be 01 dd aa be 26 17 91 be 1d c9 cc 3c
       -0.15115201 -0.33371738 -0.28337973 0.024998242
0000d0 79 83 85 bc f1 50 77 be
       -0.016298043 -0.2415197

conv1.bias f4 [6]
000000 0a ac bb 3e 05 4c 46 be 94 2e 2c 3c ef bf 5d bf
       0.36654693 -0.19364937 0.010509152 -0.8662099
000010 24 95 71 be 0e 1c 9e be
       -0.23592049 -0.3088078

conv2.weight f4 [6, 6, 3, 3]
000000 51 84 e3 3d 23 17 ea 3e 85 2e 03 3e d5 15 48 3d
       0.11109222 0.45720777 0.12810715 0.048848946
000010 e4 a6 14 3e 28 9f 13 3e 3b 25 77 3e 7b a5 a3 3e
       0.14516789 0.14416182 0.24135296 0.3196219
000020 aa 8a 82 3e d2 4b fe be 91 f3 91 be a8 be 9f be
       0.25496417 -0.4966722 -0.2850614 -0.31200147
000030 c1 d0 8b 3d b8 2f b7 be 13 f0 a4 be ed 68 f9 3d
       0.06826926 -0.35778594 -0.32214412 0.12178216
000040 e5 d8 be bc bb 53 1f bf 4b 30 88 be ce cb 3a bd
       -0.023296783 -0.6223714 -0.26599345 -0.04560452
000050 5a fe 15 be 17 6a ec 3d e9 3d f5 3a 87 65 ee 3d
       -0.14647809 0.115436725 0.0018710467 0.116404586
000060 d0 3b 7d 3e 24 3c 5c 3e 6a 2b 7c 3e c2 62 0a be
       0.24729848 0.21507317 0.24625936 -0.13514236
000070 e0 60 b6 bc 59 bb 76 be 86 30 1d 3e ac 48 f5 3d
       -0.02226299 -0.24094905 0.15350541 0.11976752
000080 b8 d5 01 3e 42 e4 dc 3d 10 8d 32 3e e3 26 c5 3e
       0.12679183 0.10785724 0.17436624 0.3850623
000090 71 1c 48 be ca 76 9d bd 2f 7c 82 3e 8a 94 81 be
       -0.195421 -0.07688673 0.2548537 -0.2530864
0000a0 a5 53 2e be fc 9f 69 be 97 d0 07 be 02 17 e0 bd
       -0.17024095 -0.22814935 -0.13263164 -0.109418884
0000b0 b7 a5 c6 be 21 e2 5b 3d 18 65 28 be 96 f4 e7 bd
       -0.38798305 0.05368245 -0.16444814 -0.11325948
0000c0 ae 29 fe bd eb eb 84 3d b8 b3 66 be a4 1d 33 be
       -0.124102935 0.0649031 -0.22529495 -0.17491776
0000d0 b7 bd ec 3c bd 9d 38 be 82 82 1d bf 83 21 b8 bf
       0.028899057 -0.18028922 -0.61527264 -1.4385227
0000e0 41 8b 3f bf 3b b2 00 be 47 08 e4 bc 18 f8 85 3f
       -0.7482186 -0.1256799 -0.027835978 1.0466337
0000f0 3c 91 a1 3e b7 c4 49 3f b5 c6 50 3f b6 2b 1f be
       0.31556118 0.7881579 0.815532 -0.15544018
000100 3f 8d d8 be c8 cd b4 bd 32 d5 9d bd af 6d 68 be
       -0.42295262 -0.08828312 -0.077066794 -0.22698091
000110 58 38 15 be 46 68 60 3e d2 a7 86 3d 9d c3 be be
       -0.14572275 0.21914777 0.06574978 -0.37258616
000120 44 10 85 3e 91 a4 ab be 34 5e 07 bf fc 52 84 3b
       0.25988972 -0.33523992 -0.5287812 0.004038213
000130 90 69 27 bf 92 6f a9 be a3 fb a5 3d 20 a9 45 3e
       -0.6539545 -0.33092934 0.081046365 0.19302797
000140 78 94 3a 3f 54 b0 d5 3d ee 2a 35 be 55 36 ea be
       0.72882795 0.104340225 -0.17692158 -0.45744577
000150 02 28 d3 3a fd 4d 8c be 05 dc cb bd 0c 87 76 3e
       0.0016109946 -0.2740325 -0.09954075 0.24074954
000160 b0 9a 8e 3e b7 57 99 3e e8 bf cc be 1f b9 05 3f
       0.27852392 0.29949734 -0.39990163 0.522356
000170 f7 2d 9e 3e a0 65 bb 3d dd 19 80 3e c9 4e 80 be
       0.30894443 0.09150243 0.25019732 -0.25060108
000180 7b 01 13 3c 08 b6 a0 be 27 40 0d bf f9 83 64 bc
       0.008972521 -0.3138888 -0.55176014 -0.01394748
000190 48 fc a6 3c d6 a9 df 3d bb 7f 3a 3d 70 48 97 3d
       0.020383969 0.109210655 0.04553197 0.07386863
0001a0 f7 1d 40 3e 70 1a b8 3d e2 dc 58 3d 72 81 1e be
       0.1876143 0.089894176 0.052945025 -0.15479067
0001b0 55 46 02 bf 4a 86 65 bd db 35 f3 3e a8 c3 bc be
       -0.5088857 -0.05603627 0.47502026 -0.36868024
0001c0 ef b2 26 3f 06 85 0e 3e 8a 63 c5 bc 3e 23 d5 3e
       0.6511678 0.13917932 -0.024095315 0.4162845
0001d0 27 9d 1c bf ea b7 58 be 0e 0a 8c 3e a3 6c ed 3d
       -0.61177295 -0.21163908 0.2735142 0.115929864
0001e0 61 5e c8 bd 3d 64 bc 3e b7 90 2a be 3f 9c 81 3e
       -0.09783626 0.36795226 -0.16656767 0.2531452
0001f0 f9 50 38 bd 1b af 8a be 2d e8 e3 be 80 cf 56 be
       -0.044999097 -0.2708672 -0.44513074 -0.20977592
000200 65 69 ed bc 19 e2 8f be e8 b0 c6 3d 01 0d 10 3e
       -0.02898092 -0.28102186 0.09701711 0.1406746
000210 81 fc 9b bd 7e 20 d2 3e 56 6b c1 3d 25 9d 5b be
       -0.07616521 0.41040415 0.09444301 -0.21446665
000220 19 24 4d be ff 02 1f bd 1c fb 21 be 3a 53 33 3d
       -0.20033301 -0.038821217 -0.15818447 0.043780543
000230 ba 55 2d 3e 23 76 4a ba a9 8b 59 3e ad 49 17 3e
       0.16927233 -0.0007723292 0.21244682 0.14774199
000240 a1 1e 81 3e c4 93 3c be 81 a4 63 be cc 60 25 3e
       0.2521868 -0.18415743 -0.22230722 0.16150206
000250 d8 06 4c be af d6 28 bd 0d 1f c8 bc ce 2e 5e be
       -0.19924486 -0.041220363 -0.024428869 -0.21697542
000260 03 94 ac 3d 9d 9e 61 3c b8 eb 09 be 07 60 91 bd
       0.084266685 0.0137707265 -0.13468826 -0.07098394
000270 14 f0 1c be 97 23 8e 3d 95 70 56 bc 74 d4 20 be
       -0.15325958 0.06940382 -0.013088365 -0.15706044
000280 6c c3 18 be 41 3a 05 3c 13 6d db bd f9 79 39 3e
       -0.14918298 0.008131565 -0.10714164 0.18112935
000290 a8 2e d3 3e 0a dc 58 be aa e5 37 be 70 74 5d 3d
       0.41246533 -0.21177688 -0.17958704 0.05406612
0002a0 98 e8 c2 3d 8c 79 98 be 5c 0d 06 bf 64 dd a2 bd
       0.0951702 -0.29780233 -0.52364135 -0.07952383
0002b0 19 4c 3c 3f e9 84 2f 3b ee 98 ba be 2f bc e1 bc
       0.73553616 0.0026782101 -0.364448 -0.027555553
0002c0 53 8d 36 3e a3 cb c5 be ea 6a e4 be 17 23 dc be
       0.17827348 -0.38631925 -0.4461282 -0.4299552
0002d0 0e f1 97 3d 43 16 63 3f 84 3b bb 3d 94 e4 33 bf
       0.074190244 0.88705844 0.09142211 -0.7027066
0002e0 89 72 4e 3e c2 4b aa 3e 2f 7b 45 bf cd 72 32 bf
       0.20160879 0.33260924 -0.7714109 -0.6970642
0002f0 36 54 fc 3e fa d2 24 b9 cc 35 24 3e c0 da c2 3e
       0.49282998 -0.00015718854 0.16036147 0.38057518
000300 be 6d 34 bd 17 7f 66 3d 90 01 6c 3e 8b 2c e9 be
       -0.04404997 0.056273546 0.23047471 -0.45541796
000310 1a ec 37 be 1b 7e 87 be 98 26 eb bd 35 1c e9 be
       -0.1796116 -0.26463398 -0.114819705 -0.45529333
000320 0c 39 be be 24 fc e3 3d 67 fc 13 be 79 80 a6 be
       -0.37152898 0.111320764 -0.14451753 -0.32519892
000330 b4 8a 72 3e 48 05 e6 3d a0 cb 01 bd a5 11 5d bd
       0.23685724 0.11231476 -0.031688333 -0.053971905
000340 69 25 a0 be 72 09 6f be 68 37 1d 3d 2c 09 6c 3d
       -0.31278542 -0.23343447 0.038382918 0.057625934
000350 aa df 5e bd 94 73 b2 3e db 9b a1 3e 5d b4 bc 3d
       -0.05441252 0.34853804 0.3156422 0.09214089
000360 9b b8 d3 bd 4f 32 1a 3e 44 3e b7 3e 72 73 91 be
       -0.10337945 0.15058254 0.35789692 -0.2840839
000370 80 b6 b8 bd e7 bd e0 3e 68 e2 ed 3d c2 af 2f be
       -0.09019184 0.43894884 0.11615449 -0.1715689
000380 17 14 01 3e 05 3f d1 be 03 da ab be b6 1c 3b be
       0.1260532 -0.40868393 -0.33564767 -0.18272671
000390 c6 95 8e 39 5d 5d 90 3d 32 fa a2 3d 96 9d e4 3d
       0.0002719594 0.07049058 0.07957877 0.1116287
0003a0 f5 9b 4f 3e 91 db b2 3b 4c 2c 41 3c 5f 5c 16 3d
       0.20274337 0.0054583033 0.011790346 0.036709186
0003b0 e2 6d 0a 3f 03 44 7e 3e 9d c8 4a 3e 65 ee 8a bc
       0.5407392 0.24830632 0.1980309 -0.016959378
0003c0 d1 e4 99 3d 22 9a 9b 3e be 7c c5 3e c9 6d aa be
       0.075143464 0.30391032 0.38571733 -0.33286884
0003d0 fa 28 52 3e 4d 56 e6 3e 42 b1 d0 be 79 96 71 3e
       0.20523444 0.44987717 -0.40760237 0.23592557
0003e0 33 dc 44 3e a9 cc dd be 0d 2d 0f 3e 4b 76 56 3e
       0.19224624 -0.43320206 0.1398203 0.20943563
0003f0 91 09 21 be 99 97 cb be fc b2 aa be e6 f3 96 bd
       -0.15726306 -0.39764097 -0.3333968 -0.07370739

conv2.bias f4 [6]
000000 f9 bf 0a 3e 3c b7 4e bd ab 01 2d be 03 a2 69 3e
       0.13549794 -0.050467715 -0.16895168 0.22815709
000010 8c 62 99 be 01 1b e1 be
       -0.29957998 -0.43965915

conv3.weight f4 [16, 6, 3, 3]
000000 8e 1d 3b bf 9a 7c 4b be 73 c2 02 3f f2 07 23 bf
       -0.7309197 -0.1987175 0.51077956 -0.63684
000010 5f 35 01 be c7 cb 6f 3e 32 8c f8 be be e7 d4 be
       -0.12618016 0.23417579 -0.4854446 -0.41583055
000020 46 4d f8 3d dc 3c b8 3e 61 9e 60 be c7 27 82 be
       0.12124114 0.35983932 -0.21935417 -0.25420973
000030 2d 23 77 ba 94 da b9 be 82 e1 a6 be a3 e3 19 3d
       -0.0009427544 -0.36299574 -0.32593924 0.037570607
000040 c1 87 d9 be 3e e9 06 be 3d 25 ea 3a b3 fd 61 bd
       -0.42486385 -0.13174912 0.0017863881 -0.055173587
000050 46 42 80 3e cd ea 83 be fe c4 43 bd 05 e2 81 bd
       0.25050563 -0.25765076 -0.04779529 -0.06341938
000060 65 f7 fc 3c f9 bf ce be 0d 94 3c 3e a8 70 dc be
       0.030879686 -0.4038084 0.18415852 -0.430547
000070 23 e8 05 bf 06 29 6f bd 0a c1 52 be d3 c3 9b be
       -0.5230734 -0.058388732 -0.20581451 -0.3042284
000080 de 8c 9f 3e af 53 11 3e 05 b0 0f be 2f 89 15 3f
       0.3116216 0.14192079 -0.1403199 0.5841245
000090 21 49 14 bf 1d 5a ac be 7c f4 34 3f 0b 5c 08 bf
       -0.57924086 -0.336625 0.70685554 -0.53265446
0000a0 c5 23 74 be ce fd 27 3f 52 6e c0 be 15 6d 82 be
       -0.2384177 0.6562165 -0.37584168 -0.25473848
0000b0 e2 e2 1b 3f 3d fa f1 3e e0 9d bb be 1d f8 50 3d
       0.6089307 0.4726123 -0.36643887 0.05101787
0000c0 66 67 94 3e cc f4 52 be f2 bd 37 3e f6 9b 0c 3d
       0.28985137 -0.20601195 0.17943552 0.034328423
0000d0 a0 9d 76 be a1 b5 49 3e 53 6e 00 be 03 de 62 be
       -0.24083567 0.19698192 -0.12542085 -0.22155003
0000e0 e3 76 73 3e 79 8e ac bc 66 7f d1 bd 6c 8f b1 3d
       0.2377582 -0.02106403 -0.102293774 0.08669934
0000f0 53 3f e6 3d ac 66 65 bd 56 e1 0a bd 70 c9 01 bf
       0.11242547 -0.05600612 -0.033906303 -0.50697994
000100 c5 fa 68 3e 97 0b b1 3e 4c ea b1 be b1 8f 24 be
       0.22751911 0.34579155 -0.34749067 -0.16070439
000110 5e 0b 1c 3e 4e 07 c8 be 75 41 d7 bd 77 b8 56 3e
       0.15238711 -0.39068073 -0.10510532 0.20968805
000120 c9 1e d4 bd cc d2 63 3d 37 33 eb 3e a3 00 b0 bd
       -0.10357434 0.055620953 0.4593751 -0.085938714
000130 e5 c7 07 be 0d dc 7e 3e 10 a6 18 be 06 d0 d3 be
       -0.13259847 0.2488863 -0.14907098 -0.41369647
000140 6e a9 96 be ce d2 8d 3e 54 ba 2e be a5 78 cb 3d
       -0.2942614 0.27699894 -0.17063266 0.099351205
000150 36 17 16 3e 0d a6 68 3d 95 7d 1d 3f ab 65 8f be
       0.14657292 0.056798983 0.6151975 -0.28007254
000160 4e 33 d0 3d 14 81 91 3e 4c db 2d bd 77 06 2a be
       0.101660356 0.2841879 -0.042445466 -0.16604029
000170 b6 b7 a0 3e 34 42 fb bc 84 25 08 be ad 1a 37 3e
       0.3139016 -0.030671217 -0.13295561 0.1788127
000180 8b 1a 90 3d e0 0d cb be 79 bb 2d be 2b 8a e9 be
       0.07036313 -0.39659023 -0.16966046 -0.45613226
000190 48 c8 ce 3e cd a0 77 3f c3 a3 06 bf 37 d1 8c be
       0.40387177 0.9672974 -0.5259363 -0.27503368
0001a0 39 53 07 3e a4 c7 c5 be 54 ee 31 bf 12 29 e7 be
       0.1321534 -0.38628876 -0.69504285 -0.45148522
0001b0 99 08 04 3f 93 70 4e 3f 4a 52 d7 3e f0 33 24 3e
       0.5157562 0.80640525 0.4205497 0.16035438
0001c0 08 80 70 bb 73 70 6f be 6f 1b 19 3d 00 e1 32 bf
       -0.0036697406 -0.2338274 0.03737968 -0.6987457
0001d0 c3 ee 3f bf d1 54 04 be cc 61 0c bf 88 56 49 bf
       -0.74973696 -0.1292298 -0.54836726 -0.7864766
0001e0 ba 52 df 3d bb a2 90 be 47 fd 6a be 2c c1 84 3d
       0.10904451 -0.28249153 -0.2294818 0.06482157
0001f0 e2 3a d6 bd 55 5a be be bf d1 0f be 89 04 0c be
       -0.1046045 -0.37178293 -0.14044856 -0.13673605
000200 f2 94 bb be 0a 4a 6c 3e 25 e5 bd bd b4 50 8b be
       -0.36637074 0.23075119 -0.092722215 -0.2721001
000210 88 45 f2 3d cc a8 9e bd a4 c7 6b be ca 96 48 be
       0.11829668 -0.07747039 -0.23025376 -0.19588771
000220 40 0a 0e 3d 37 ad b8 3d 27 52 cd be ad 1e 80 bd
       0.034677744 0.09017413 -0.4010174 -0.06255851
000230 6e b8 66 3e ed b0 d7 be 3e 74 b6 3e a9 16 6f 3f
       0.22531292 -0.4212717 0.3563556 0.9339395
000240 6b cd f6 3e 97 b1 17 3f 15 17 ed 3e 5f d3 b6 bc
       0.48203596 0.59255356 0.46306673 -0.022317586
000250 18 94 fe bd 64 78 a7 bd 30 54 4b be e2 f4 13 bf
       -0.124305904 -0.081772596 -0.19856334 -0.57795537
000260 48 ed e5 be b7 a6 de be af ed 62 bf a1 d1 53 bf
       -0.44907594 -0.43486568 -0.88643926 -0.82741743
000270 4f 8f 00 be 20 18 bf be 85 2d bb be f7 f4 e9 bd
       -0.12554668 -0.37323093 -0.36558166 -0.114236765
000280 76 dc f3 bc 7a 19 a1 be 6d 1f 63 bf 48 4d 00 3e
       -0.02976821 -0.3146475 -0.88719827 0.1252948
000290 1d 3b 26 3f b0 d3 88 be b8 3b d3 be 6d ff c5 3e
       0.6493395 -0.26724005 -0.412565 0.38671437
0002a0 cd 82 2a 3f 5f bc a7 be 2a 2d 9c bc 8f 4f af 3d
       0.66605836 -0.32760903 -0.019064505 0.085600965
0002b0 f0 2f 23 bf cc 26 12 bf 33 72 83 3c db b5 41 be
       -0.6374502 -0.5709045 0.016045665 -0.18917029
0002c0 70 da 26 bf 8f 4f e9 3d d4 91 be 3d 5c 8d 9d be
       -0.6517706 0.11392128 0.09305158 -0.3077191
0002d0 f0 b5 93 bd e1 92 e2 bd a3 05 4b be 0e 6e c2 bd
       -0.07212436 -0.11063171 -0.19826369 -0.094936475
0002e0 a9 a7 f2 bc 64 ec 8b 3d f9 3f 75 be ae 41 26 be
       -0.029620962 0.06832197 -0.23950185 -0.16235992
0002f0 38 e2 bf bd b4 53 47 3f cc 09 66 3e de cc 59 3d
       -0.0936932 0.77862096 0.22464675 0.053173892
000300 6d e0 4a be bb 09 f8 3e e1 9a 50 3d 44 dd 2c be
       -0.19812174 0.48444924 0.050928954 -0.16881281
000310 c5 60 4d 3e 9a 04 9c 3e ea bd 1f be cf 87 ff 3e
       0.20056446 0.3047226 -0.1559979 0.499083
000320 d0 5d 6a 3e 0c 7c ec be 35 bf 3e be 45 9f cc 3e
       0.22887349 -0.4618839 -0.18627627 0.39965263
000330 dc bc 5e be ea c7 cd be d0 84 65 3e c7 b7 7d 3e
       -0.21751732 -0.40191585 0.22413945 0.24777137
000340 13 9e d6 be 1e 6a 47 bf 5b ab 66 bc 96 be ad 3e
       -0.41917476 -0.77896297 -0.01407894 0.33934468
000350 08 d1 26 be fb ec 59 be 7f fa c9 bd 76 98 26 3d
       -0.16290677 -0.21281807 -0.098622315 0.04067274
000360 2a 53 7b 3d c0 7f c2 bd 65 0c 90 bd 77 79 3e bd
       0.06135861 -0.09497023 -0.07033614 -0.046502557
000370 d3 f5 88 3d b2 e9 19 be 89 6c a9 bd 0f 1f e8 3d
       0.06687512 -0.15030554 -0.082726546 0.11334049
000380 db e6 57 3c 0c 48 a3 3c 50 d5 14 bb 85 40 45 be
       0.013177599 0.019931816 -0.0022710152 -0.19262893
000390 81 4f 8f 3e 58 cb 88 3e 94 92 16 3e 8f af a0 bd
       0.27990344 0.2671764 0.14704353 -0.07845985
0003a0 b3 c2 81 be 05 79 3a bd 03 71 6f bc 8e 9f 81 be
       -0.25343856 -0.04552557 -0.014614346 -0.25317043
0003b0 94 e3 0a be 7b e2 cb bd c1 24 36 be be c0 56 be
       -0.13563377 -0.09955307 -0.17787458 -0.20971963
0003c0 52 24 7f 3d 5a ee d4 bd bd 07 84 be 7e e1 2c be
       0.062290497 -0.103970245 -0.25787154 -0.16882893
0003d0 23 a5 84 be 39 22 b2 be e6 9c 03 be 57 57 bd be
       -0.2590724 -0.34791735 -0.12852821 -0.36980698
0003e0 64 1c 73 be 57 2d f8 bd 67 85 1b be db 8a 30 be
       -0.23741299 -0.12118023 -0.15187608 -0.17240469
0003f0 50 e8 1d 3c 7d a3 70 be 9d c8 76 be 1e bf 8c 3d
       0.009637907 -0.23499866 -0.24099965 0.0687239

conv3.bias f4 [16]
000000 c7 e0 62 3d c4 af 3b 3d f4 05 af 3e ff be 55 be
       0.055390146 0.04582192 0.3418423 -0.2087364
000010 4f 20 7b bd c7 80 d5 bd dd c8 17 bf 1c ed b0 bd
       -0.06131011 -0.10424953 -0.5929087 -0.08638975
000020 9a d3 5a bd df 20 6b 3d 8d cb b0 bd 47 dc 03 bf
       -0.053424455 0.057404395 -0.08632574 -0.5150799
000030 6b eb 22 3d d0 ea 8d be 34 0e 02 bc f9 15 b7 be
       0.039775293 -0.2771821 -0.007937957 -0.3575895

fully_connected_1.weight f4 [120, 400]
000000 1a f0 aa 3c 6b 07 d0 3c d6 1f 8b bc 3c f4 79 bd
       0.020866442 0.025394162 -0.016982954 -0.061023936
000010 6f af bd 3c 74 3f 1f bd bc d4 8f bd f3 3b 0a ba
       0.023154942 -0.038878873 -0.07022998 -0.00052732154
000020 5f 7f d9 bc 85 89 7d bc 6d 28 21 3d 8d 00 37 bc
       -0.026549993 -0.015474682 0.039345194 -0.011169565
000030 6c 69 24 bc 68 17 8d bd 36 cc 69 3d 9d d3 9e bb
       -0.0100349 -0.0688923 0.057079516 -0.0048470036
000040 b1 06 9d 3c dd ee 4b 3d 54 bd f3 bb 02 94 ed 3c
       0.01916823 0.049788345 -0.007438341 0.02900124
000050 5b 22 7e bc ac 38 37 3d ca 49 1b 3e dc d8 c6 3b
       -0.015511121 0.04473178 0.15164867 0.006068332
000060 be 46 3f bd 0f 8b 2c bd aa 28 86 3d 9d 57 55 3d
       -0.046698324 -0.042124804 0.06550725 0.052085508
000070 74 a4 9c bc 92 f1 14 3d 74 5f 81 bd e9 da 25 3d
       -0.019121386 0.036363192 -0.06317034 0.040491972
000080 11 48 c6 bc 6f 07 94 bd 08 fd f2 3c 81 66 ce bc
       -0.024204286 -0.0722798 0.02966167 -0.025195362
000090 2e d7 e1 3c 8f 1b 5a 3d 62 38 71 bd f6 5c 6c 3d
       0.027568426 0.05324894 -0.05889166 0.057705842
0000a0 bb 06 04 3d b0 ed 2d 3b fb 76 d9 3c 27 1c f1 3c
       0.03223298 0.0026539378 0.026545992 0.02943237
0000b0 17 ea 50 3d 0f 7a 85 3d da 9d 80 bd 5c e0 be 3c
       0.051004495 0.065174215 -0.06280108 0.023300342
0000c0 38 08 e8 3c 9f 90 65 bd ab ac 56 bc 19 93 c2 bd
       0.028324232 -0.056046125 -0.013102691 -0.09500713
0000d0 72 b1 88 bd 99 9d 29 3d 56 41 88 3c 5c 92 5b 3e
       -0.0667447 0.041410062 0.016632717 0.2144255
0000e0 5d 57 29 3e b4 9c 88 3d fe ae e2 3c 97 c8 61 bd
       0.16537233 0.06670514 0.027671333 -0.055122938
0000f0 c2 67 c6 b9 59 e8 72 3d 9e b1 04 3d 42 d7 50 3c
       -0.00037842809 0.059303615 0.03239595 0.012746634
000100 e4 97 0a 3d c2 17 16 be 15 91 72 bc 20 2f 72 bd
       0.03383626 -0.146575 -0.014805098 -0.059126973
000110 99 f0 d4 3c b9 27 6c 3d 6f 89 f8 bd a5 fc 58 bd
       0.025993632 0.05765507 -0.121355884 -0.052975316
000120 10 c9 5d bd 12 ab c7 bd e0 2b 31 bd fb a4 cf bc
       -0.054146826 -0.09749426 -0.043254733 -0.025347224
000130 7b a3 3e bd 1e 7d ff b9 25 3d 98 bd 0e 84 b3 bd
       -0.046542626 -0.0004873061 -0.074335374 -0.08765422
000140 0f 76 44 3d fa de b6 3c 56 60 90 bd ac b3 ba bd
       0.047964152 0.02232312 -0.070496246 -0.09116301
000150 bb a0 8b 3d 32 79 57 3d 98 ea d5 3d 84 73 14 3d
       0.06817766 0.052605815 0.10445136 0.036242977
000160 a6 7d cd bd 95 c2 a9 bd 0c fb 11 3d c6 4f dd 3d
       -0.10033731 -0.08289067 0.035639808 0.10806231
000170 75 36 11 3d b9 d9 56 3d 96 ee 9d bb d0 6d 24 bb
       0.035452325 0.05245373 -0.0048197014 -0.0025089867
000180 0a 45 f1 bc 4e b8 87 bc 66 11 f4 3c 9a 36 02 bd
       -0.029451866 -0.016567376 0.029793452 -0.031790353
000190 89 5c 37 bc db 76 62 bd 94 24 0a 3d 5f f9 7c 3c
       -0.011191496 -0.05528913 0.03372629 0.015440314
0001a0 fb 2e 52 bc 0e af 4d bd 89 c9 dc bb 5e 45 13 bd
       -0.012828584 -0.050215773 -0.006737892 -0.035954826
0001b0 be 27 85 3d fc b2 03 3d 3b b8 3b bc 64 6d 57 bd
       0.06501721 0.032153115 -0.011457498 -0.052594557
0001c0 56 8e a0 bc 21 3c 53 3d bc 0d de 3c 22 2e da 3c
       -0.019599121 0.051571015 0.027106158 0.026633326
0001d0 6c 14 f3 bc 64 d0 26 3c 97 69 a9 bc bf c4 04 3c
       -0.029672824 0.01018152 -0.020680232 0.008103549
0001e0 6d e6 0f 3d a4 06 54 3d 4b 9c 38 3d 23 cf 3f 3d
       0.03513186 0.051764145 0.045070928 0.0468284
0001f0 b9 a3 6b 3d 96 a2 11 bd 51 0f 8e bc 87 08 6e bd
       0.057529185 -0.035555445 -0.017341288 -0.0581136
000200 58 42 10 3c 86 c0 23 3e 32 1c 6b bc 01 f8 2e be
       0.00880488 0.1599141 -0.014349984 -0.17086793
000210 cd 2e 63 bd 3e 06 8d bd 1e a4 fd 3d 93 90 92 3d
       -0.055464555 -0.06885956 0.123848185 0.071564816
000220 61 84 f2 bd 31 3e 2c bd 30 de d1 bd d5 59 05 3e
       -0.118416555 -0.042051498 -0.10247457 0.1302255
000230 51 d9 dc 3d b1 6e f3 bc eb 7b 3a bd e0 0d 98 bd
       0.10783637 -0.029715868 -0.045528334 -0.074245214
000240 57 0e df 3c 3f 96 43 3d 5f 6b 05 3d 1e cd 50 bd
       0.027228517 0.047750708 0.0325731 -0.050976865
000250 5f 56 79 bd db 53 69 bd e9 8d 1c 3d da ff c6 3d
       -0.060873386 -0.056964736 0.038221274 0.097167686
000260 5f f2 fa 3c 71 00 87 bd 14 3c 83 bd de cf be bb
       0.03063315 -0.06591881 -0.06407943 -0.0058231195
000270 ee 31 ee bc 23 f0 3c 3d ac 78 eb 3a be 0b 85 ba
       -0.029076543 0.04612745 0.001796504 -0.0010150594
000280 2f d4 a1 bc 2a 79 3c bd 0e d5 2f bd fe 60 ad 3d
       -0.019754497 -0.04601399 -0.042927794 0.084657654
000290 73 bb 36 3e 41 98 a9 bd 0e 7e 48 be ea 27 56 be
       0.17844944 -0.08280993 -0.19579336 -0.20913664
0002a0 f7 d6 51 bd b9 e5 bc bd 14 72 fa bc bf 43 33 be
       -0.051230397 -0.092235036 -0.030571975 -0.17506312
0002b0 1e cf 3e be b9 28 15 be 4a 3e 1d be bd 35 86 3a
       -0.18633696 -0.14566316 -0.15355793 0.0010239404
0002c0 fe 98 c3 3b 9a 6e 2c bd c3 87 b5 3c 78 4e 0e bd
       0.005969166 -0.042097665 0.022159463 -0.034742802
0002d0 77 63 38 bd 42 28 52 3d 6d dc ea 3b e4 fc 13 bc
       -0.045016732 0.051307924 0.00716739 -0.009032462
0002e0 db f7 f4 bc 48 00 1d bd 35 2b 30 3c 73 1a 93 3c
       -0.029903343 -0.038330346 0.010752489 0.017956948
0002f0 74 01 02 bd 62 b0 4a bd 0e a2 30 3d 89 b7 93 bc
       -0.031739667 -0.049484618 0.043123297 -0.018031852
000300 a6 f8 50 3d 7a 0e a8 3b 14 ab 6a bd ca db f3 bc
       0.05101838 0.005128679 -0.05729206 -0.02976789
000310 08 5e 1d bd 12 ad ff 3c d3 58 da ba a6 b5 fc bc
       -0.038419753 0.031210456 -0.0016658552 -0.030848335
000320 dc d5 60 bc e6 9a bb bb 41 35 0d bd 2a ca 35 bd
       -0.013722863 -0.0057252524 -0.034474615 -0.04438225
000330 27 da 89 39 de 1f d3 bb 99 cc 7e bd 79 d9 cc bc
       0.00026293212 -0.006443008 -0.06220684 -0.025006043
000340 b5 8f ff 3c 77 43 da 3c 7d f1 67 3b 4d 65 42 3c
       0.031196455 0.026643498 0.003539174 0.011864972
000350 b1 e2 b9 ba 91 84 c8 bc 7e 02 37 3d 54 33 57 3c
       -0.0014181939 -0.024477275 0.04468011 0.013134796
000360 81 d3 f0 3b ce b5 84 bd 55 42 bc 3c 82 1b 34 3d
       0.007349432 -0.06479989 0.022980848 0.043971546
000370 53 b0 28 bd 22 5e bc bc 05 60 2e bd 29 06 0a 3d
       -0.04118378 -0.022994105 -0.04257204 0.03369728
000380 8a 3d 00 bd 5a f3 a1 3c ff 26 20 bd 67 36 e4 bc
       -0.03130869 0.01976936 -0.03909969 -0.027857972
000390 b8 47 ba bc f9 d0 f6 bc 5d 49 4e 3c ac c2 77 bc
       -0.022739276 -0.030128943 0.012590733 -0.015122097
0003a0 6e ec 18 3d 85 c5 f9 bc 6d 0f 05 bd a5 5f 0e bd
       0.037334852 -0.030489692 -0.032485414 -0.034759182
0003b0 e5 78 30 3d af 71 b7 3c ab e0 21 3d 56 8c 0f bd
       0.043084044 0.022393076 0.0395209 -0.035045944
0003c0 48 28 80 3c 60 b1 30 bd aa 7a 98 3c f5 a4 13 bd
       0.015644208 -0.043137908 0.018613178 -0.036045987
0003d0 1c 6a f7 bc da 0c 04 3d 2c 30 f2 3c 5c 3e 0b bd
       -0.030201964 0.03223882 0.029563986 -0.033995017
0003e0 ed 16 87 bc 5f 22 54 bd 77 b8 2e bd 68 29 7b 3c
       -0.016490424 -0.05179059 -0.042656388 0.015329696
0003f0 5c 58 26 3c 8c 0d 72 bd 14 0a a8 bd bc 3d 24 bd
       0.010152902 -0.05909495 -0.08205047 -0.040097937

fully_connected_1.bias f4 [120]
000000 d1 d5 c0 3c 62 04 0c 3d 1e 97 41 bd dd ad e4 3d
       0.023539456 0.034183867 -0.047263257 0.11165974
000010 b0 f7 02 3d 42 00 5d 3a 81 02 4a bd 10 99 9c bd
       0.031974494 0.00084305194 -0.049318794 -0.07646382
000020 91 37 1f 3e 6f fb 56 3d 93 3d 9a bc 0e 91 9d bc
       0.1554854 0.05248588 -0.018828189 -0.019234207
000030 cb f6 67 3d e9 d4 40 3d d5 68 c6 bd 65 5b eb bc
       0.056631844 0.047078047 -0.09687964 -0.028730104
000040 b0 98 05 bc 39 91 91 3c e5 5c 6e bc 41 e6 55 bd
       -0.008154079 0.017769443 -0.014548515 -0.05222154
000050 74 28 94 bd 49 6f fa 3c e8 99 13 3e bf 92 96 bc
       -0.07234278 0.030570643 0.1441418 -0.01838052
000060 8b 48 f7 3c 0c 14 a7 bc 60 56 29 be 8d 0a f1 bc
       0.030185958 -0.020395301 -0.16536856 -0.029423976
000070 c6 b9 9e 3c fb 9c 17 3b e2 32 bf bb 07 f3 74 3c
       0.019375693 0.002313434 -0.005834923 0.01495052
000080 47 89 b1 bc 21 6e f0 3d 49 35 92 3c 80 52 4c bd
       -0.021671904 0.117397554 0.017847674 -0.049883366
000090 0d c2 8f 3d 99 18 05 bd f5 79 f3 3d 43 8d 6c 3d
       0.07019434 -0.03249416 0.11888496 0.057751905
0000a0 4c 50 a4 bc dc 67 71 be ed cb 1f 3d 3f 44 c0 3a
       -0.02005782 -0.23574775 0.03901284 0.0014668776
0000b0 bb 81 14 bd b3 7f 99 3e 06 00 36 3d 8c 4f f2 3d
       -0.036256533 0.2998024 0.044433616 0.118315786
0000c0 15 c8 ae bc 86 7d 2a 3d da eb 28 bd 5b 90 23 be
       -0.02133564 0.041623615 -0.04124055 -0.15973036
0000d0 df 1a 46 bd 2d 21 e4 3c 9f 4c d9 bc 42 23 2d 3e
       -0.04836547 0.02784785 -0.026525794 0.16907981
0000e0 2f 68 46 3d 18 68 1b bc a2 f8 85 bc 52 58 19 bd
       0.0484392 -0.009485267 -0.016353909 -0.037437744
0000f0 03 0c 61 bb b9 1c 30 bb c8 fd d5 bd 15 72 0f bd
       -0.0034339435 -0.0026872589 -0.104487956 -0.035020906
000100 87 7d ca 3c da 87 3a 3d e3 5b cf 3d 61 21 87 bd
       0.02471806 0.045539714 0.10124948 -0.065981634
000110 17 36 19 3d 3c d7 40 bd 0d c7 9f 3c 34 31 4c bd
       0.0374051 -0.047080263 0.019504094 -0.04985161
000120 53 96 52 bd a2 6b b6 3c b5 2c a1 bb 82 35 4a 3c
       -0.05141289 0.02226812 -0.0049186596 0.012341859
000130 66 11 2d be a1 1a 0d bd 3a dd 32 bd 4f 27 d8 bc
       -0.16901168 -0.034449223 -0.04366801 -0.026385931
000140 dc da fb 3c 0f 92 9f bc 00 e1 95 bd 3e db 31 bd
       0.030744009 -0.019478826 -0.07318306 -0.043421976
000150 29 9e 24 be c0 86 2b 3d 5f c6 2c be c8 84 2e 3d
       -0.16075958 0.041876554 -0.16872548 0.0426071
000160 5a 8f f4 bc 39 1b b8 3c 41 38 87 bd 3c c1 b8 3c
       -0.029853512 0.022473918 -0.066025265 0.022553079
000170 78 6b d1 3d dd b5 98 3a 94 e1 2e be 01 ce b3 bc
       0.10225576 0.0011650879 -0.17078239 -0.021948816
000180 dc 5c f7 3d f5 cd 19 bb 9d 3b 57 bb 4c 18 9d 3d
       0.120782584 -0.0023468707 -0.0032841929 0.0767065
000190 9f f8 bb 3d e8 56 c0 3c 2b 2a 2b bd 89 a4 c0 3d
       0.0917828 0.02347894 -0.04178826 0.094063826
0001a0 a1 ca d3 3c 75 0c cb 3c 6a 16 78 bd fa 3e 9b bd
       0.025853457 0.024786213 -0.06056825 -0.07580371
0001b0 0a 54 2d 3c c9 56 87 3d 88 c2 58 3c 7e 48 6f bb
       0.0105791185 0.0660835 0.013229974 -0.0036511715
0001c0 00 e4 61 bd dc 4f dd 39 0e aa e1 ba b3 ac 74 3c
       -0.05514908 0.00042211905 -0.0017216818 0.014933753
0001d0 39 72 d5 ba 8d c0 c3 bd 86 d1 63 bd d5 bd 45 bd
       -0.0016284651 -0.095582105 -0.05561974 -0.04827674

fully_connected_2.weight f4 [48, 120]
000000 e7 d1 29 ba 07 6c 5e be 5d 54 20 3e a2 35 55 bc
       -0.0006478116 -0.21720897 0.15657182 -0.013013275
000010 2d e2 73 3c d5 6c 03 3e 60 3e 54 be 68 af 7b be
       0.0148854675 0.12834485 -0.20726919 -0.24578631
000020 f5 a0 1a be fb 22 ca 3d e9 18 01 3e 93 80 b9 bd
       -0.15100463 0.09869953 0.12607159 -0.09057727
000030 31 b2 15 bd 66 c2 65 3e cd a4 e5 bd 06 54 26 3d
       -0.03654689 0.22437438 -0.11213074 0.040607475
000040 c2 d0 de bd f4 51 45 bd 88 88 4f be b5 92 76 3e
       -0.10879661 -0.04817386 -0.20266926 0.24079402
000050 12 5a 34 be 6c cd 21 be 79 c3 8a be 60 d0 9d 3d
       -0.17612484 -0.15801018 -0.2710226 0.0770576
000060 a6 2b 83 bd 22 1e 92 3d 72 9a 45 be 2e 73 cd bd
       -0.0640481 0.07134654 -0.19297197 -0.100317344
000070 fb 1c 0a 3e 29 c1 ba be e4 86 e3 bd fb a3 64 3e
       0.13487618 -0.36475495 -0.11109713 0.22328179
000080 eb ee 49 ba a4 3e b3 bd 1b ee d6 bd 12 36 25 be
       -0.0007703143 -0.08752182 -0.10494634 -0.16133907
000090 1f 81 4a bd 7e b1 8d 3d fa 61 fa bc 69 77 ab bd
       -0.049439546 0.069186196 -0.030564297 -0.08372385
0000a0 f3 b4 01 be 60 de 6b 3d eb 4d 4c 3e ea 07 87 bd
       -0.12666683 0.05758512 0.19951598 -0.06593306
0000b0 96 e8 de 3c 3a 09 87 be 15 c0 98 bc b4 fb 60 bd
       0.027210515 -0.26374227 -0.01864628 -0.054927543
0000c0 7b e5 81 bc 5b c8 9e bd 0d 94 01 3e d1 1d 00 be
       -0.015856495 -0.077530585 0.12654133 -0.12511374
0000d0 90 0b d1 3c 6e 22 4f 3d eb 0a 65 3d 90 4e c2 bd
       0.025518209 0.050569944 0.055918615 -0.09487641
0000e0 9d a4 86 bd 05 80 01 3e 03 f8 73 bd cb 60 cd ba
       -0.06574366 0.12646492 -0.059562694 -0.0015669105
0000f0 60 49 76 3e 53 be 76 bd 4c 5b 5c be a0 d2 8a bd
       0.24051428 -0.0602401 -0.21519202 -0.06778455
000100 c6 f3 8b be 80 d0 49 bd 14 65 bc 3a 2e 46 eb 3d
       -0.27334422 -0.049271107 0.0014373385 0.11487995
000110 b0 f7 6f 3d 22 2a 3c 3e 3f 42 9b bd 3c 84 9e 3d
       0.058585823 0.18375447 -0.07580995 0.077400655
000120 01 fc 9a bd a9 51 54 3d 2b f7 92 3d 0a a4 b9 3c
       -0.07567597 0.05183569 0.0717605 0.022661228
000130 08 f4 d2 bc d5 d1 80 3b 0d 17 65 bd 69 46 08 be
       -0.025751129 0.003931264 -0.055930186 -0.1330811
000140 65 23 87 bd 1d 64 12 be 45 a1 2c 3c 4f f4 86 3e
       -0.06598548 -0.14296003 0.0105364965 0.26358268
000150 22 16 07 be ed 18 3b be 2a f7 07 3e b6 53 90 bd
       -0.13192037 -0.18271227 0.1327788 -0.070472166
000160 34 62 ec bd 75 44 08 bd 1a ac 58 3c de 06 3f be
       -0.11542168 -0.03326841 0.013224626 -0.18654963
000170 06 49 9f bd 2b 7f 59 bb 75 24 be 3d ab 41 50 3e
       -0.077776 -0.003318737 0.092842974 0.2033755
000180 53 1d bc bd f8 be 9a bd da b7 77 bd 23 4f 51 bd
       -0.09185281 -0.07555956 -0.06047807 -0.05110086
000190 f3 59 61 be de db 98 3d 81 28 8b bd bc 2b bc be
       -0.22006969 0.07463811 -0.06794835 -0.36752117
0001a0 9c 4e 75 bc 20 d6 15 be 0a 7d f9 bd ca 47 2d 3d
       -0.014972355 -0.14632463 -0.121820524 0.04230479
0001b0 65 61 84 be aa 22 1f bd 37 4f 7f be ab 27 64 be
       -0.25855556 -0.038851418 -0.24932562 -0.22280757
0001c0 04 b0 c8 3c a9 b2 ac be 6c 06 ed bd aa b1 b7 3d
       0.024497993 -0.33730057 -0.115734905 0.089694336
0001d0 d8 2b 85 3d 70 7b 1f bd fa 2c 5d be e8 13 83 bd
       0.06502503 -0.03893608 -0.21599188 -0.06400281
0001e0 69 b7 3a be 1d e9 5f bd 0d c6 50 be 15 e7 63 bd
       -0.18234028 -0.054665674 -0.2038805 -0.0556403
0001f0 be 13 7a bd 4a be 1d be be 1e 32 be f8 a1 17 be
       -0.061053984 -0.15404621 -0.1739454 -0.1480788
000200 1b 5d 2a 3d 02 8b 47 3e 97 87 06 be 85 f6 86 3d
       0.0415927 0.19486621 -0.13137661 0.065899886
000210 ba b8 a6 3d 6d 40 5d be 89 4b 2d be b0 8a d3 3d
       0.081407025 -0.21606608 -0.16923346 0.10329187
000220 4d f6 5c be b6 7f e5 3b 41 d7 76 3e 4a c8 c0 3c
       -0.21578331 0.0070037497 0.2410555 0.023533005
000230 3d 4f 12 bd fe 60 ec 3c d1 5b 9c bd d0 77 d4 bc
       -0.0357201 0.028854843 -0.076347 -0.025936037
000240 e7 3a 1e 3e 16 69 22 3d 79 56 53 bd 96 ec 99 3d
       0.15452157 0.039651 -0.05159614 0.07515828
000250 1e 9c 29 3e 21 99 7f 3d d5 4a 4c be 37 97 71 be
       0.1656346 0.062401894 -0.19950421 -0.2359284
000260 84 20 03 be cb 7d 08 3e af a6 73 bd 75 dc 06 be
       -0.12805372 0.13329236 -0.059485134 -0.13170035
000270 74 38 cb 3d 6b 29 00 be 92 af a2 3d e5 9b b2 3d
       0.09922877 -0.125158 0.07943644 0.08721141
000280 75 dd 49 be 23 3f 06 3e 2d a9 06 3e 1a b5 96 bd
       -0.19713385 0.13110022 0.13150473 -0.07358761
000290 a6 1e d5 bd cc f1 23 be 05 5e f6 3b d1 3f 27 be
       -0.10406236 -0.16010207 0.007518532 -0.16332938
0002a0 be 15 16 3c 62 90 aa 3d 6b f3 7a 3e 90 4e bc be
       0.009160457 0.0832832 0.24506919 -0.36778688
0002b0 80 fb 84 3d 83 de 89 bd 4e 11 99 ba 30 03 da bc
       0.06493282 -0.06731894 -0.0011678131 -0.026612848
0002c0 4a c1 22 3c 62 57 a7 3d 4b 2e c5 3c 22 f8 9a be
       0.009933779 0.08170964 0.024069926 -0.30267435
0002d0 e9 82 77 be 58 2d b4 bd c1 94 b7 be 7f 2e c0 bd
       -0.24171032 -0.08797711 -0.35855678 -0.093838684
0002e0 57 97 f1 be 24 06 1b be c5 3d 8b 3e 80 1a 67 be
       -0.47185776 -0.15139061 0.27195564 -0.22568703
0002f0 f1 51 07 bd aa 70 04 be 93 f9 ed bd f5 db 3c 3a
       -0.03303713 -0.12933603 -0.11619868 0.0007204407
000300 05 4e 4d bd dc e5 db 3c b7 8b 03 3d 1b 9d 20 3e
       -0.050123233 0.026843004 0.032115664 0.15684931
000310 e6 41 92 be df 99 94 bd 0f 43 04 3d 74 22 9e 3d
       -0.28565902 -0.07255911 0.032290515 0.07721415
000320 fb 5f 71 be 19 78 6b be 95 33 85 3d 13 5d 04 3e
       -0.2357177 -0.22995032 0.06503979 0.1292613
000330 02 31 3b bb 8b 76 98 bd 3e 1b 8a 3e ba 3b 8f bd
       -0.0028563146 -0.07444485 0.2697391 -0.06993814
000340 ba bb 2a 3e 96 96 32 3d 9e 51 d2 bd de 4a 90 bd
       0.16673175 0.04360064 -0.102694735 -0.0704553
000350 8d d9 c4 be 6d 12 b5 3b 76 5d f2 bd 3b f2 12 3d
       -0.38447228 0.005525878 -0.118342325 0.03587554
000360 15 c7 e1 bd e4 8c 86 bc 4a e2 38 3d 85 82 9a 3e
       -0.110243 -0.016424604 0.04513768 0.30177703
000370 d9 ef 5b be 15 a2 42 3e 00 04 87 3d 0b 1f f4 3b
       -0.21478213 0.19007142 0.0659256 0.0074499897
000380 60 15 c4 3d 15 fe 1f be 09 9c a6 3d fe f5 56 be
       0.095743895 -0.15624268 0.0813523 -0.20992276
000390 d9 9f 11 be c6 b6 9a bc e7 1c 22 3e ec 9f 90 3e
       -0.14221133 -0.018885981 0.15831338 0.2824701
0003a0 fb 53 8e bd b4 5d dc bd ff fc 0e ba 10 84 25 3d
       -0.06949612 -0.1076006 -0.00054545695 0.040409148
0003b0 fc 4f 22 bc e0 13 d9 bd 91 1e ad be 3d c5 90 3e
       -0.009906765 -0.10599494 -0.33812383 0.2827548
0003c0 8d 59 ad bd 0b eb e6 bd bd d8 a6 3e 2b a9 71 be
       -0.08464346 -0.112753 0.32587233 -0.23599689
0003d0 7e 6c 8c 3d 22 20 b1 bd 89 74 86 be 15 14 7e 3e
       0.06856631 -0.08648707 -0.26260784 0.24812348
0003e0 bf 06 ea bd 96 da 34 bc 35 fc 36 3c 0e cf ad 3c
       -0.11427068 -0.011038443 0.011168529 0.021216895
0003f0 1b 49 11 3e d9 f8 28 3e be 35 83 be 75 f0 e0 bc
       0.14188044 0.16501178 -0.2562694 -0.027458409

fully_connected_2.bias f4 [48]
000000 73 39 8f 3e 92 3f 04 3e 8e 1e 82 3d a3 bc 6f 3e
       0.27973518 0.12914875 0.06353484 0.23411803
000010 74 f1 96 3e 8d 9e 57 3d d4 b4 4e bd c3 d2 8c 3c
       0.2948109 0.05264144 -0.05046542 0.017190343
000020 f6 3c c3 bd e3 c9 ce bc 47 2b 40 3e 3a 12 b7 3d
       -0.09533112 -0.025242751 0.18766509 0.08939023
000030 f9 2b 37 3e fe 75 58 bd 41 2b a7 3d b9 b4 ad 3e
       0.17887868 -0.0528469 0.08162547 0.33926943
000040 85 5e f6 3c 4d c0 45 3e a4 80 53 3c c0 62 84 3e
       0.030074367 0.19311638 0.012909088 0.2585659
000050 4f 4b 34 3e d5 7c 0f 3c 05 fe 77 3d 6a b0 c5 3d
       0.17606853 0.00875779 0.060544986 0.09652789
000060 c5 2b 05 bd 49 36 03 bd e6 81 9c bd 6d fe 70 3e
       -0.032512445 -0.032034192 -0.07641964 0.23534556
000070 fa 69 31 3e bf a6 75 3d 97 41 06 3e 9a f5 5d 3d
       0.17325583 0.059973475 0.13110958 0.054189302
000080 cb c2 37 3c e8 c5 21 3d fd 3e 81 bd 28 b0 8a 3d
       0.011215876 0.03949538 -0.06310842 0.067718804
000090 19 db 3d 3e bf 26 ac 3d b3 d2 a5 3e db 50 4c 3c
       0.1854061 0.08405828 0.32387313 0.012470449
0000a0 3b 58 fe bc af c3 fe 3d 7a 5a bb 3d a4 17 15 3e
       -0.031047931 0.124396674 0.091481164 0.145598
0000b0 16 c8 84 3e 3e ef e9 bc a1 46 5f 3c ea 28 d1 bd
       0.25933903 -0.028556462 0.013627679 -0.10212882

fully_connected_3.weight f4 [24, 48]
000000 4e 46 28 3f 31 75 7d be a5 ed e2 3e 03 35 df 3e
       0.65732276 -0.24751736 0.44321933 0.43595132
000010 a3 96 8b be cd 69 a8 be 6c d4 0e 3f de 92 b1 3e
       -0.27263364 -0.3289322 0.5579288 0.34682363
000020 4c 7b 5e be cf 2e 4d be 73 b1 d1 3e bd 69 d0 be
       -0.21726722 -0.20037387 0.40955696 -0.40705672
000030 64 db df 3e 44 02 f7 bd 81 23 7d be 51 04 b6 be
       0.4372207 -0.12060979 -0.24720575 -0.35550168
000040 bf cf a6 be 05 45 76 be 64 fe 8e 3c 75 d9 90 be
       -0.32580373 -0.24049766 0.017455287 -0.28290907
000050 d5 97 18 3e cd c9 82 be dc 68 3a 3e 85 a9 58 be
       0.1490167 -0.25544587 0.18204063 -0.21158417
000060 4d a9 dc bd 52 81 d0 3e 7c c1 81 be 30 eb f1 3e
       -0.10774479 0.40723664 -0.2534293 0.47249746
000070 0b 00 51 be 2a a0 6e be da 2b a7 be 74 d6 b8 bd
       -0.20410173 -0.23303285 -0.32650644 -0.09025279
000080 fb 70 ce 3e b1 d2 01 bf 2b 11 b6 be f7 01 bc bd
       0.40320572 -0.50712115 -0.35559973 -0.09180062
000090 a2 c1 d7 3e 68 06 00 3f 27 25 af be a4 00 05 be
       0.42139918 0.50009775 -0.34208032 -0.12988526
0000a0 26 e1 90 be 6c 29 bc be 21 0f cb be ae f9 15 be
       -0.28296775 -0.36750352 -0.3965998 -0.14646026
0000b0 59 13 d9 3e 95 7a b3 be b6 82 b8 3e 9d 60 47 be
       0.42397574 -0.3505446 0.36037225 -0.19470449
0000c0 27 6b 7d be d0 82 07 be 66 42 90 be b9 cf e8 be
       -0.24747907 -0.13233495 -0.28175658 -0.4547098
0000d0 7b c9 f1 3e cf 60 d4 be e6 93 8d be 73 81 94 be
       0.4722403 -0.4148011 -0.276519 -0.29005012
0000e0 3a 74 57 bd 0a 76 e0 3e 24 74 a4 be 58 93 95 3e
       -0.052601077 0.43840057 -0.32119858 0.29213977
0000f0 01 2b a3 be a4 7b 8d be bb bf bf be 5d 9a e2 3e
       -0.31868747 -0.27633393 -0.37450966 0.44258395
000100 ef 9b 93 be 83 f6 d5 3e be cf 43 be 3f 86 d6 3e
       -0.28829905 0.41789636 -0.19122216 0.41899297
000110 87 97 97 be c7 8c 52 be 0c 83 1c 3e 8d e6 95 be
       -0.29607794 -0.20561515 0.15284365 -0.2927746
000120 66 a6 db 3e dd 8c 7c be 90 6e 85 be 1d d7 f1 3e
       0.4290039 -0.2466311 -0.26060915 0.4723443
000130 08 37 d6 3e 0b 13 85 be 80 e3 71 be 37 97 1d bd
       0.4183886 -0.2599109 -0.2362194 -0.038474288
000140 c0 74 93 be 5a ae d4 3e 9b 77 80 be a5 49 a0 be
       -0.2880001 0.4153927 -0.25091252 -0.31306186
000150 15 bc d0 3e 01 ff d6 be 7c 01 b4 be 42 19 de 3e
       0.40768495 -0.41991428 -0.35157382 0.43378645
000160 6b 11 5b be c3 39 98 be 52 8b 1e be 41 cf b9 3e
       -0.21393363 -0.2973157 -0.15482834 0.36290935
000170 41 db 4c be 9d 9e 7e be 7c e4 8d bd df 07 52 be
       -0.20005514 -0.24865194 -0.069283456 -0.20510815
000180 ca 6d 94 be fc bd bd be e4 74 88 bd 0c 21 c0 be
       -0.28990012 -0.3705901 -0.0666292 -0.37525213
000190 da 29 c8 bd c6 03 bc 3e 99 46 10 3f fb 99 71 be
       -0.097736076 0.3672163 0.56357723 -0.23593895
0001a0 94 6d d6 3e 1a b0 03 3f 5f bd 80 be c6 a4 9a be
       0.41880476 0.51440585 -0.2514448 -0.30203837
0001b0 6a 99 85 3e 81 a5 bb 3e 53 4f 9b be d3 2a 83 be
       0.26093608 0.36649707 -0.30333957 -0.2561861
0001c0 9b 9c b3 3e ab 87 a9 be f5 8d e0 bc ad f8 90 be
       0.35080418 -0.3311132 -0.02741144 -0.28314725
0001d0 3f 98 42 be 22 32 b1 be 22 99 c1 bd 1a de 70 be
       -0.1900339 -0.3460856 -0.09453036 -0.23522225
0001e0 11 b2 ce 3e 1f 11 e4 3e 5b d8 14 be 99 ca 62 be
       0.4037023 0.44544312 -0.14535658 -0.22147597
0001f0 5f f1 a5 be 40 0f a2 be 1e 11 d1 3c a9 3c fe 3e
       -0.32410714 -0.3165226 0.025520857 0.49655655
000200 9a 1b 3d be 46 41 92 be 9b 17 b9 3d 6f cf 28 be
       -0.1846756 -0.28565425 0.090377055 -0.1648538
000210 85 e3 4f be 28 a8 4e be 11 ad ca be e9 57 0f be
       -0.20301636 -0.20181334 -0.39585164 -0.13998379
000220 48 0a ed 3e 15 65 ed be 55 30 c9 3e e6 e1 8f 3e
       0.46296906 -0.46366182 0.39294687 0.28102034
000230 50 fb 7e be f2 9a 03 3f 91 af 1d be 1c f9 54 be
       -0.24900556 0.514083 -0.15399005 -0.20798153
000240 ad b3 e1 bd 54 ad c3 bd 8d 59 70 be 00 a9 ca 3e
       -0.110205986 -0.09554544 -0.23471661 0.39582062
000250 f6 99 cb 3e 4a 59 85 3e 70 fa 38 be 82 3f bb 3e
       0.397659 0.26044685 -0.18064284 0.3657189
000260 ef 98 4a 3c 2f d4 34 be ca 89 d6 3e f8 bc ae 3e
       0.012365564 -0.17659067 0.41902 0.34128547
000270 4a 9b 17 be 11 bb 8a be ea 0d 06 3f 38 e7 76 be
       -0.14805332 -0.27095845 0.5236498 -0.2411164
000280 03 70 5a be 0f d7 0e be 44 cd dd bd 56 a3 f2 bd
       -0.21331792 -0.13949226 -0.10830167 -0.1184756
000290 8e 57 1d be 39 8b cb 3e 16 66 df 3d 1e ce 81 be
       -0.1536543 0.39754656 0.10908143 -0.25352567
0002a0 4f 1d 7a be 35 28 09 bd 77 57 d3 3e 07 eb ea 3e
       -0.24425243 -0.03348561 0.41277668 0.45882437
0002b0 dc bc d2 3e 02 d4 19 3f a7 ea 0e bd 4a a8 2f be
       0.41159713 0.60089123 -0.03489175 -0.17154041
0002c0 f5 1d a8 be 1f 20 93 3e 68 25 34 be e1 62 86 3e
       -0.32835355 0.28735444 -0.17592394 0.26247314
0002d0 68 7f 06 be de fd 6f be b6 f1 8c 3c 67 f8 8e bd
       -0.13134539 -0.23436686 0.0172051 -0.06980973
0002e0 9b 6b e4 3e fe 94 90 bd 32 0c b8 bd 70 6a 62 be
       0.44613346 -0.07059668 -0.08986701 -0.22110915
0002f0 55 c2 80 bd cc 39 f7 3e a9 6c d2 3e 24 8a fc bc
       -0.06287066 0.48286283 0.41098526 -0.03082759
000300 d7 32 15 3f 74 63 9f be b1 f1 78 be e0 25 39 be
       0.582807 -0.31130564 -0.24310948 -0.18080854
000310 65 b5 e3 3e 43 3c 2e be b9 88 12 3e 19 09 8d be
       0.4447433 -0.17015176 0.14309968 -0.27546003
000320 ad c4 ac 3e d9 87 89 bd 5d a6 e4 3e 99 79 4a be
       0.33743802 -0.06715364 0.44658175 -0.19772948
000330 18 a0 4d be cc 19 66 3e 57 dd 1d be 35 12 22 be
       -0.20080602 0.22470778 -0.15416466 -0.15827258
000340 e5 78 8f be 0c 80 c4 bd cd 39 31 be 76 26 a1 3e
       -0.28021923 -0.095947355 -0.17307205 0.31474656
000350 f2 2c eb bd 7a f6 1a 3c 41 ab d3 3e 5f 60 3e be
       -0.11483182 0.009458179 0.41341594 -0.1859145
000360 0b cc c0 3e 91 c9 04 be 11 1e 4c be 20 59 ec 3e
       0.37655672 -0.12967516 -0.19933344 0.46161747
000370 88 d0 c5 3e b9 be 70 be 81 2b be bc 59 0a ed 3e
       0.3863566 -0.23510255 -0.023214104 0.46296957
000380 82 c0 a0 3e 7f 85 a5 be 75 96 48 3d c5 e2 e2 bc
       0.31396872 -0.32328412 0.048971612 -0.027696023
000390 87 17 c8 3e 18 ac ec 3e 65 ce bc be 2b bb b9 bd
       0.3908045 0.46225047 -0.36876217 -0.090689026
0003a0 9c cc 1b be 71 4d aa be 92 5d b9 3e 93 f4 aa 3e
       -0.15214771 -0.33262208 0.362042 0.3338972
0003b0 d3 fd 5e be 93 de 0c be 25 0c be 3e db 7c 6f be
       -0.21776514 -0.1375678 0.3711864 -0.23387472
0003c0 61 7e 06 bd af d9 de 3e c4 1f f1 bd f8 a5 d5 3e
       -0.032835368 0.43525454 -0.11773637 0.41728187
0003d0 ed c4 b8 be b0 b3 b3 3e 04 0d 8d bd ac af b1 3e
       -0.36087742 0.35098028 -0.06887248 0.3470434
0003e0 40 b1 f4 bd c9 2f d9 3e d2 1a 00 3f 7c 7d d8 be
       -0.1194787 0.4241927 0.50040925 -0.42283237
0003f0 39 be 23 be ff bf dd bd 52 a0 75 be b1 bb de 3e
       -0.15990533 -0.10827636 -0.23986939 0.43502572

fully_connected_3.bias f4 [24]
000000 5c 21 b0 bd 03 c2 b3 3d 7f 80 31 bf ba 51 29 3e
       -0.08600113 0.08777239 -0.69336694 0.16535082
000010 25 49 07 bf 48 4e f6 be 1d b4 be bd 5a 3d a3 3d
       -0.52845985 -0.481066 -0.09311698 0.07970686
000020 1e 40 ee 3e 6c e8 94 be 1a 37 b4 3d 40 aa e7 3e
       0.46533293 -0.29083574 0.08799572 0.45247078
000030 9c 53 c6 3e 6a 20 98 be 3c 00 25 be af 20 9c bf
       0.38735664 -0.2971223 -0.1611337 -1.2197474
000040 fe bd a0 3c ab 18 ae 3e 8a bf c5 3e b5 ca 05 3f
       0.019621845 0.34003195 0.38622695 0.5226243
000050 b4 c4 a8 3e 0c cb 4e 3f 02 52 b9 be c8 88 bd be
       0.32962573 0.80778575 -0.3619538 -0.37018418
